head/head_Domainnet.pt (torch, 709515 bytes, 2 tensors)

weight f4 [345, 512]
-2.4398417 3.8053513 -4.3473487 0.8704343 1.5133903 -3.679798 -1.1711236 -8.391188
-3.0932503 0.98584265 -0.8106553 -0.42044535 0.7749157 -2.263272 2.6068559 0.32465073
1.3247751 -0.3244841 2.5205472 -2.1610332 4.751902 2.2730536 -1.4406924 1.0236299
-3.2554996 -0.6531933 -0.50834703 3.6299362 -4.458835 -1.434241 1.8691772 0.9020534
-1.7333428 4.557782 0.75406 -5.995392 -0.0365838 -0.0473225 -1.4953011 0.74609244
2.882899 -0.60531723 1.4969937 -4.7888293 1.8760432 1.6643015 0.060052536 -1.2235904
3.7203763 -2.4149723 -6.104331 -3.989638 -0.7644819 0.13323922 0.015780872 -0.1418254
3.608664 -0.4871965 2.3707557 3.363296 4.845948 1.3232032 -3.1047533 -1.4017609
-3.8941755 -3.2509468 -3.4610603 2.3557987 1.3974465 -0.69975543 2.4662201 1.1893016
1.1115706 2.3946264 -0.8445877 -4.254126 2.0925229 -0.2823894 -1.7220606 -0.24918517
-1.3895985 1.6529642 -8.545492 -2.8007898 0.57487065 0.10617587 5.186465 -6.382762
0.37882206 -1.2178981 4.281881 -3.653398 -15.56286 1.7035007 -4.1610537 1.4350358
0.5744132 -4.0853143 -3.7540886 -0.8973825 1.2354941 0.0470397 -2.7175503 -1.4023886
0.59155643 -0.4504141 -0.07728901 -0.8841928 7.8240185 -0.7149508 1.4793732 -3.8573577
-0.8729284 -0.7215624 -2.7446938 4.171525 3.7650406 -1.7411447 0.30371878 6.678772
0.81351084 -6.866885 2.7387433 -2.5072372 -1.6939031 -2.2951088 2.4620306 1.3985186
0.9548323 2.420698 -3.3601787 -2.6413374 2.4993382 50.833748 3.1809692 -2.6217663
-2.7645414 -2.6380246 1.94025 -1.8161879 -3.663155 2.03173 -2.7122662 2.9960907
-1.866491 -0.71781856 -1.5152508 -1.3022323 -0.10067912 0.8047159 -3.0046241 -5.2190585
1.5293037 -4.130228 0.3195334 2.7070117 -1.27113 0.35972372 -1.7127779 3.1904087
3.6590035 -4.536604 2.0350852 0.5368091 -1.0846311 -7.0767345 1.6145093 -1.6940975
2.2194624 1.4234886 -0.33446583 2.74466 -1.7584972 0.331324 -7.091905 -2.058222
-0.8656285 3.0504267 1.4714861 -1.782728 -0.3483441 2.2545125 0.18118128 3.176825
-1.0457596 2.6005104 -0.12788531 -4.537853 4.09025 0.25586677 3.9197571 -5.118657
-0.47725487 0.995 1.9165982 -2.2908676 -5.362418 1.5603309 -2.6832292 -3.2517362
-4.3914514 -3.7498507 -0.26535237 3.58695 2.2576663 -0.7406554 3.0549548 -1.0809797
0.4070898 1.6482506 -3.16187 2.731981 0.23625307 -1.783 1.5292994 2.5301359
-6.064857 0.5867156 -2.3405015 -3.1612341 6.847849 -2.28239 -2.5304563 -1.0506849
-0.92236584 -3.6749907 -2.4822128 -0.9907473 -4.061096 -1.0565032 0.20512708 4.5032444
-0.7487998 1.2300055 4.03126 -0.116081804 -4.1342983 4.962995 -1.0375817 0.14789298
2.022595 4.6655393 3.4421968 -0.6236183 -4.8097224 -3.8586292 1.7253196 4.1263123
-0.11152768 2.425118 -1.6258972 -4.9995375 4.6175914 7.1943955 0.24039692 0.5515631
00000000: 5e26 1cc0 e08a 7340 7b1d 8bc0 c8d4 5e3f
00000010: c6b6 c13f cf81 6bc0 61e7 95bf 4e42 06c1
00000020: d0f7 45c0 2f60 7c3f 1b87 4fbf 9d44 d7be
00000030: e060 463f 73d9 10c0 bad6 2640 9f38 a63e
00000040: 3b92 a93f c822 a6be a550 2140 5e4e 0ac0
00000050: 950f 9840 b679 1140 9c68 b8bf 4e06 833f
00000060: 1b5a 50c0 ad37 27bf 0823 02bf e050 6840
00000070: c7ae 8ec0 3695 b7bf 3341 ef3f f9ec 663f
00000080: 2dde ddbf 5ad9 9140 130a 413f 40da bfc0
00000090: e5d8 15bd 3dd5 41bd 0766 bfbf eaff 3e3f
000000a0: 6b81 3840 12f6 1abf 7d9d bf3f 173e 99c0
000000b0: 2f22 f03f d507 d53f a6f9 753d 9c9e 9cbf
000000c0: a51a 6e40 e88e 1ac0 ae56 c3c0 3b56 7fc0
000000d0: 16b5 43bf dd6f 083e e346 813c ad3a 11be
000000e0: 5af4 6640 d271 f9be 76ba 1740 3e40 5740
000000f0: 0212 9b40 b95e a93f 47b4 46c0 e76c b3bf
00000100: 2c3a 79c0 830f 50c0 0382 5dc0 68c5 1640
00000110: 87df b23f 2c23 33bf 8dd6 1d40 093b 983f
00000120: f247 8e3f 8f41 1940 e636 58bf cd21 88c0
00000130: e5eb 0540 5895 90be 7b6c dcbf 662a 7fbe
00000140: 5dde b1bf 5594 d33f 56ba 08c1 2440 33c0
00000150: b92a 133f bc72 d93d 85f7 a540 963f ccc0
00000160: f7f4 c13e 16e4 9bbf 2b05 8940 46d1 69c0
00000170: 7901 79c1 500c da3f 5a27 85c0 41af b73f
00000180: be0c 133f e5ba 82c0 fd42 70c0 dcba 65bf
00000190: ac24 9e3f b3ac 403d 58ec 2dc0 7881 b3bf
000001a0: 3e70 173f ad9c e6be b349 9ebd 765a 62bf
000001b0: 5c5e fa40 0407 37bf 1a5c bd3f f3de 76c0
000001c0: 3c78 5fbf 50b8 38bf 10a9 2fc0 227d 8540
000001d0: 6df6 7040 d4dd debf 0781 9b3e 80b8 d540
000001e0: 3f42 503f 86bd dbc0 9247 2f40 9376 20c0
000001f0: d1d1 d8bf 10e3 12c0 e991 1d40 a802 b33f
00000200: e46f 743f b7ec 1a40 2b0d 57c0 ac0b 29c0
00000210: 28f5 1f40 c255 4b42 0095 4b40 05cb 27c0
00000220: 3fee 30c0 65d5 28c0 1d5a f83f d878 e8bf
00000230: 2271 6ac0 dd07 0240 c595 2dc0 f3bf 3f40
00000240: 2de9 eebf f5c2 37bf bdf3 c1bf 8caf a6bf
00000250: db30 cebd dc01 4e3f c34b 40c0 8702 a7c0
00000260: 39c0 c33f d42a 84c0 e299 a33e ae3f 2d40
00000270: 63b4 a2bf b52d b83e 4e3c dbbf a82f 4c40
00000280: 1d2d 6a40 dc2b 91c0 d63e 0240 526c 093f
00000290: 31d5 8abf 9c74 e2c0 3ea8 ce3f 30d8 d8bf
000002a0: ac0b 0e40 e034 b63f 1b3f abbe 82a8 2f40
000002b0: 7016 e1bf 4da3 a93e e3f0 e2c0 e9b9 03c0
000002c0: d499 5dbf 313a 4340 a859 bc3f 6e30 e4bf
000002d0: 285a b2be ef49 1040 9687 393e 1a51 4b40
000002e0: 73db 85bf c36e 2640 5ef4 02be 1736 91c0
000002f0: 54e3 8240 f800 833e 4ddd 7a40 0acc a3c0
00000300: c05a f4be 52b8 7e3f 1753 f53f 939d 12c0
00000310: ee98 abc0 ecb8 c73f 07ba 2bc0 721c 50c0
00000320: c586 8cc0 8efd 6fc0 44dc 87be 9790 6540
00000330: 9b7d 1040 989b 3dbf 6184 4340 8b5d 8abf
00000340: 136e d03e e0f9 d23f 145c 4ac0 c7d8 2e40
00000350: 53ec 713e 5839 e4bf 15c0 c33f bfed 2140
00000360: 4f13 c2c0 fe32 163f c7ca 15c0 a951 4ac0
00000370: 9421 db40 ae12 12c0 fff2 21c0 d87c 86bf
00000380: 2b20 6cbf 0c33 6bc0 93dc 1ec0 9da1 7dbf
00000390: 80f4 81c0 7f3b 87bf d50c 523e 941a 9040
000003a0: 58b1 3fbf d270 9d3f 1500 8140 4cbc edbd
000003b0: 2c4c 84c0 dbd0 9e40 7acf 84bf 4271 173e
000003c0: 3272 0140 194c 9540 f44c 5c40 73a5 1fbf
000003d0: 3fe9 99c0 c8f3 76c0 46d7 dc3f c00a 8440
000003e0: a068 e4bd 2235 1b40 661d d0bf 36fc 9fc0
000003f0: 4fc3 9340 7d38 e640 9c2a 763e 3d33 0d3f

bias f4 [345]
0.0 0.0 0.0 0.0 0.0 0.0 0.0 0.0
0.0 0.0 0.0 0.0 0.0 0.0 0.0 0.0
0.0 0.0 0.0 0.0 0.0 0.0 0.0 0.0
0.0 0.0 0.0 0.0 0.0 0.0 0.0 0.0
0.0 0.0 0.0 0.0 0.0 0.0 0.0 0.0
0.0 0.0 0.0 0.0 0.0 0.0 0.0 0.0
0.0 0.0 0.0 0.0 0.0 0.0 0.0 0.0
0.0 0.0 0.0 0.0 0.0 0.0 0.0 0.0
0.0 0.0 0.0 0.0 0.0 0.0 0.0 0.0
0.0 0.0 0.0 0.0 0.0 0.0 0.0 0.0
0.0 0.0 0.0 0.0 0.0 0.0 0.0 0.0
0.0 0.0 0.0 0.0 0.0 0.0 0.0 0.0
0.0 0.0 0.0 0.0 0.0 0.0 0.0 0.0
0.0 0.0 0.0 0.0 0.0 0.0 0.0 0.0
0.0 0.0 0.0 0.0 0.0 0.0 0.0 0.0
0.0 0.0 0.0 0.0 0.0 0.0 0.0 0.0
0.0 0.0 0.0 0.0 0.0 0.0 0.0 0.0
0.0 0.0 0.0 0.0 0.0 0.0 0.0 0.0
0.0 0.0 0.0 0.0 0.0 0.0 0.0 0.0
0.0 0.0 0.0 0.0 0.0 0.0 0.0 0.0
0.0 0.0 0.0 0.0 0.0 0.0 0.0 0.0
0.0 0.0 0.0 0.0 0.0 0.0 0.0 0.0
0.0 0.0 0.0 0.0 0.0 0.0 0.0 0.0
0.0 0.0 0.0 0.0 0.0 0.0 0.0 0.0
0.0 0.0 0.0 0.0 0.0 0.0 0.0 0.0
0.0 0.0 0.0 0.0 0.0 0.0 0.0 0.0
0.0 0.0 0.0 0.0 0.0 0.0 0.0 0.0
0.0 0.0 0.0 0.0 0.0 0.0 0.0 0.0
0.0 0.0 0.0 0.0 0.0 0.0 0.0 0.0
0.0 0.0 0.0 0.0 0.0 0.0 0.0 0.0
0.0 0.0 0.0 0.0 0.0 0.0 0.0 0.0
0.0 0.0 0.0 0.0 0.0 0.0 0.0 0.0
00000000: 0000 0000 0000 0000 0000 0000 0000 0000
00000010: 0000 0000 0000 0000 0000 0000 0000 0000
00000020: 0000 0000 0000 0000 0000 0000 0000 0000
00000030: 0000 0000 0000 0000 0000 0000 0000 0000
00000040: 0000 0000 0000 0000 0000 0000 0000 0000
00000050: 0000 0000 0000 0000 0000 0000 0000 0000
00000060: 0000 0000 0000 0000 0000 0000 0000 0000
00000070: 0000 0000 0000 0000 0000 0000 0000 0000
00000080: 0000 0000 0000 0000 0000 0000 0000 0000
00000090: 0000 0000 0000 0000 0000 0000 0000 0000
000000a0: 0000 0000 0000 0000 0000 0000 0000 0000
000000b0: 0000 0000 0000 0000 0000 0000 0000 0000
000000c0: 0000 0000 0000 0000 0000 0000 0000 0000
000000d0: 0000 0000 0000 0000 0000 0000 0000 0000
000000e0: 0000 0000 0000 0000 0000 0000 0000 0000
000000f0: 0000 0000 0000 0000 0000 0000 0000 0000
00000100: 0000 0000 0000 0000 0000 0000 0000 0000
00000110: 0000 0000 0000 0000 0000 0000 0000 0000
00000120: 0000 0000 0000 0000 0000 0000 0000 0000
00000130: 0000 0000 0000 0000 0000 0000 0000 0000
00000140: 0000 0000 0000 0000 0000 0000 0000 0000
00000150: 0000 0000 0000 0000 0000 0000 0000 0000
00000160: 0000 0000 0000 0000 0000 0000 0000 0000
00000170: 0000 0000 0000 0000 0000 0000 0000 0000
00000180: 0000 0000 0000 0000 0000 0000 0000 0000
00000190: 0000 0000 0000 0000 0000 0000 0000 0000
000001a0: 0000 0000 0000 0000 0000 0000 0000 0000
000001b0: 0000 0000 0000 0000 0000 0000 0000 0000
000001c0: 0000 0000 0000 0000 0000 0000 0000 0000
000001d0: 0000 0000 0000 0000 0000 0000 0000 0000
000001e0: 0000 0000 0000 0000 0000 0000 0000 0000
000001f0: 0000 0000 0000 0000 0000 0000 0000 0000
00000200: 0000 0000 0000 0000 0000 0000 0000 0000
00000210: 0000 0000 0000 0000 0000 0000 0000 0000
00000220: 0000 0000 0000 0000 0000 0000 0000 0000
00000230: 0000 0000 0000 0000 0000 0000 0000 0000
00000240: 0000 0000 0000 0000 0000 0000 0000 0000
00000250: 0000 0000 0000 0000 0000 0000 0000 0000
00000260: 0000 0000 0000 0000 0000 0000 0000 0000
00000270: 0000 0000 0000 0000 0000 0000 0000 0000
00000280: 0000 0000 0000 0000 0000 0000 0000 0000
00000290: 0000 0000 0000 0000 0000 0000 0000 0000
000002a0: 0000 0000 0000 0000 0000 0000 0000 0000
000002b0: 0000 0000 0000 0000 0000 0000 0000 0000
000002c0: 0000 0000 0000 0000 0000 0000 0000 0000
000002d0: 0000 0000 0000 0000 0000 0000 0000 0000
000002e0: 0000 0000 0000 0000 0000 0000 0000 0000
000002f0: 0000 0000 0000 0000 0000 0000 0000 0000
00000300: 0000 0000 0000 0000 0000 0000 0000 0000
00000310: 0000 0000 0000 0000 0000 0000 0000 0000
00000320: 0000 0000 0000 0000 0000 0000 0000 0000
00000330: 0000 0000 0000 0000 0000 0000 0000 0000
00000340: 0000 0000 0000 0000 0000 0000 0000 0000
00000350: 0000 0000 0000 0000 0000 0000 0000 0000
00000360: 0000 0000 0000 0000 0000 0000 0000 0000
00000370: 0000 0000 0000 0000 0000 0000 0000 0000
00000380: 0000 0000 0000 0000 0000 0000 0000 0000
00000390: 0000 0000 0000 0000 0000 0000 0000 0000
000003a0: 0000 0000 0000 0000 0000 0000 0000 0000
000003b0: 0000 0000 0000 0000 0000 0000 0000 0000
000003c0: 0000 0000 0000 0000 0000 0000 0000 0000
000003d0: 0000 0000 0000 0000 0000 0000 0000 0000
000003e0: 0000 0000 0000 0000 0000 0000 0000 0000
000003f0: 0000 0000 0000 0000 0000 0000 0000 0000
