head/head_CIFAR10.pt (torch, 22087 bytes, 2 tensors)

weight f4 [10, 512]
00000000: 8031 1a3f fa67 4f40 89c9 34bd 4326 823e
00000010: 25c0 25c0 1e95 74bf b072 c53f f383 04c1
00000020: 2904 c1bf 8d85 2b40 879e 00c0 a271 66bf
00000030: 01c4 4440 95ce a3be 0a01 3840 7a54 44c0
00000040: 6071 0340 7a45 2dc0 dc0a 3bbe 6801 263e
00000050: 5989 8c40 a140 6940 5747 52bf b5b6 4f3f
00000060: 1062 73c0 65d1 62be 4570 86c0 9b94 6a40
00000070: 1c02 1c3e 315a 11be 919e 853f 56b8 f13f
00000080: 036b 0bbf 27b8 9b40 132a 42c0 af42 dabf
00000090: dcb0 3ec0 9ac9 07c0 9a7d 11c0 d9fa 4b40
000000a0: 6e40 573f db60 e6be 038d 4340 4c86 af3f
000000b0: 5a57 d640 daf6 5abd 4686 1c40 5443 0340
000000c0: 24f0 2dc0 9632 4ec0 8648 f83e 8741 34c0
000000d0: 4bac 6f3f ca51 aebe 616c bd3f e0b5 9f3d
000000e0: b44e 88bf a9a4 4e3f 375c 1fbf ee22 963f
000000f0: 7008 2c40 8144 15bf b3ad 94bf 3ca8 f5bf
00000100: 95bf ad40 7e77 4cbe f5da 1d3f 391e 3e3f
00000110: e456 1fc0 3c6d 3dbf c7e5 36c0 9537 ffbf
00000120: 694a 833f d368 a040 4e44 7f3e b029 66c0
00000130: f78c 0240 3b6f 8f3f c48b e03e 8ac0 d5bf
00000140: de2a 2bbf fa79 62c0 6262 cabf e181 2ebf
00000150: 8a29 0bc0 4854 adbf 0f97 2b40 88e1 0fc0
00000160: 546f 1ec0 dfc3 bf3e 7c39 de3f 9d72 f33f
00000170: 6c33 41c1 746e 8240 bf88 10be 30ea a53f
00000180: bf80 cfbf 6d06 7940 372d 9c3f d999 9fc0
00000190: 738b c33e 798e 13c0 798e 8140 7cca 4cbf
000001a0: a5ff 30bf 10c9 943e d351 22be 9a61 90bf
000001b0: 893a bb3e 7a23 923f 5f03 473f a517 a9c0
000001c0: c52d 6b40 d62c 64be 1494 e33f 2198 af40
000001d0: 4a4e ffbe 9a28 9abf de05 0640 6541 82bf
000001e0: eb33 6fbf 9871 d7c0 e7fd c53f e8b5 4fc0
000001f0: d2c7 833f 796f 68c0 70c1 33c0 59cd 7dbf
00000200: d607 8ebe 6253 71be e5ba 4c3e a9fe 59c0
00000210: 4a5e abbf 4c20 6542 5e4b d7be 3cc7 71be
00000220: 6819 ecbe 1ce8 bc3e b4ae 3a40 5c73 10c0
00000230: 2cdb 81c0 a8d2 a640 1766 47c0 d6a4 1540
00000240: dc5c a6bf d822 6640 79f5 f6be 072b 0fc0
00000250: 45aa 39bf 1f2b 0ec0 7fd4 f4bf 9917 443f
00000260: d0cc d23d b3f6 bdbf f5ca 02bf f9aa ab3f
00000270: 6c80 7cbe bcda 27c0 0746 16c0 644e d1be
00000280: a465 9340 608c 2ac0 ebce b23e 6f4c 863f
00000290: 00fe 18be 6dd8 a63f ed49 cd3f 1e7d afbe
000002a0: a7ba ac3f dc01 0d40 b894 de3e ca8c dfbf
000002b0: 1d24 4740 0c69 0840 9603 1fc0 6d85 6dbf
000002c0: 3279 66c0 7e88 3f40 ae15 7fc0 fa77 ac3e
000002d0: 5b97 c7be fbdd d73f 8fee 3bc0 2e88 2840
000002e0: 19f7 d53f 8612 fdbf 8906 bbbf 4587 34c0
000002f0: 36c7 50c0 8c74 ac3e 8947 1bbf 08b3 cfbf
00000300: 44ed e8bf 035a 3d40 2572 2040 7e6b c2bf
00000310: 64c8 a1c0 78d5 3a40 9762 bfbf de1b 27be
00000320: 9b35 87c0 3014 bb3f 788c cf3f 901a 14c0
00000330: bd6b 613e af2f abbe 16dc 1cbf c7c6 4dbf
00000340: adf9 92c0 3ad4 d73f 8804 6940 56c5 3e40
00000350: 69a9 9a3d c113 6b40 b56e 8d3e 39f1 26c0
00000360: 299a 01c0 7ea9 63bf ef2a 0fc0 fefa cdbf
00000370: 84d7 ce3f a7ce e1c0 4934 af3e 8eeb 893f
00000380: b904 ea3f d4dd 2ec0 ce28 a040 10cc a7bf
00000390: 804e 22c0 1001 45c0 508e f5bf 1f21 7140
000003a0: 01f7 1c3f 0bff 0840 ec94 523e f43b e3bf
000003b0: 29c6 d0bf 3d43 443f a284 6a3f ae4d c2be
000003c0: d6d6 c9bf 7b7c a43f e2e9 adc0 cd2a 01c0
000003d0: c187 a2c0 702b 40bf cec4 ee3f 4d1c 11bf
000003e0: 66ea 6d3f 262c b93f f6c3 8ac0 7c7d 1e40
000003f0: 75c4 7240 8ccc 0f40 1e7a 82c0 167a 953e
0.6023178 3.2407212 -0.04413751 0.25419816 -2.5898526 -0.95540035 1.5425625 -8.282214
-1.5079395 2.6800263 -2.0096757 -0.9001714 3.0744631 -0.31993547 2.8750634 -3.067656
2.0537949 -2.7073655 -0.18265861 0.16211474 4.391766 3.6445696 -0.82140106 0.81138164
-3.8028603 -0.2215019 -4.201205 3.6653202 0.1523518 -0.14194562 1.0439016 1.888438
-0.5446016 4.8662295 -3.033818 -1.70516 -2.9795446 -2.1216798 -2.273291 3.1871855
0.84082687 -0.4499577 3.0554817 1.3712859 6.698163 -0.053458072 2.4456954 2.0509844
-2.717782 -3.2218375 0.4849283 -2.8164995 0.93622273 -0.34046775 1.47987 0.07798362
-1.0649018 0.8072 -0.62250084 1.172941 2.688015 -0.58307654 -1.1615509 -1.9191966
5.4296365 -0.19967458 0.61662227 0.74264866 -2.4896784 -0.73994803 -2.8577745 -1.9938837
1.0257083 5.012796 0.249284 -3.5962944 2.0398538 1.120582 0.43856633 -1.6699383
-0.66862285 -3.5386949 -1.5811274 -0.6816693 -2.1744103 -1.3541346 2.681095 -2.2481403
-2.475545 0.37454125 1.7361293 1.9019352 -12.075054 4.075983 -0.14114664 1.2962093
-1.6211165 3.8910172 1.2201298 -4.98753 0.3819233 -2.3055708 4.0486417 -0.79996467
-0.6914008 0.2905965 -0.15851526 -1.1279786 0.36568096 1.1417077 0.7773952 -5.2841363
3.6746686 -0.22282729 1.7779565 5.4873204 -0.49864417 -1.2043641 2.094108 -1.0176207
-0.93438596 -6.7326164 1.546811 -3.2454777 1.0295355 -3.6318038 -2.8086815 -0.9914146
-0.27740353 -0.23566964 0.1999317 -3.4061682 -1.338815 57.28154 -0.42049688 -0.23611158
-0.46113133 0.36895835 2.916913 -2.257041 -4.0580044 5.213215 -3.115606 2.3381858
-1.2997088 3.5958767 -0.48234156 -2.2370012 -0.72525436 -2.221382 -1.9127349 0.7659851
0.10292971 -1.4840912 -0.5109094 1.3411552 -0.24658364 -2.6227255 -2.3480241 -0.4088012
4.6061573 -2.6648178 0.3492349 1.0492076 -0.14940643 1.3034798 1.6038185 -0.34275144
1.3494462 2.2032385 0.43472838 -1.746484 3.1115792 2.1314116 -2.4845939 -0.92781717
-3.6011472 2.9927058 -3.9856982 0.33685285 -0.38982663 1.6864618 -2.9364355 2.6333117
1.6716033 -1.9771278 -1.4611369 -2.8207562 -3.2621589 0.33682668 -0.6065603 -1.6226511
-1.8197408 2.9586189 2.5069668 -1.5189054 -5.0557117 2.919279 -1.4951962 -0.16319224
-4.2252936 1.4615536 1.6214743 -2.3141212 0.22013755 -0.33434817 -0.61273324 -0.80381435
-4.592978 1.6861641 3.6409016 2.9807944 0.07551844 3.6730807 0.27623525 -2.608473
-2.0250342 -0.889305 -2.2369955 -1.6092222 1.615952 -7.056476 0.34219578 1.077501
1.8282691 -2.7322893 5.004981 -1.310915 -2.5360413 -3.0781898 -1.9184055 3.7676466
0.613144 2.1405666 0.20564622 -1.7752671 -1.6310474 0.766651 0.9160863 -0.3794989
-1.5768688 1.2850488 -5.4348 -2.0182374 -5.0790715 -0.7506628 1.865381 -0.5668381
0.9293579 1.4466598 -4.336421 2.476409 3.7932408 2.2468596 -4.077407 0.29194707

bias f4 [10]
00000000: 0000 0000 0000 0000 0000 0000 0000 0000
00000010: 0000 0000 0000 0000 0000 0000 0000 0000
00000020: 0000 0000 0000 0000
0.0 0.0 0.0 0.0 0.0 0.0 0.0 0.0
0.0 0.0
