head/head_CIFAR100.pt (torch, 206795 bytes, 2 tensors)

weight f4 [100, 512]
0	0xc015d811	-2.3413126
1	0x40cbc8fe	6.368285
2	0xbf7d45c5	-0.98934585
3	0x404c2056	3.1894736
4	0x3f2a58fc	0.6654203
5	0xc093ffea	-4.6249895
6	0xc0a25b6b	-5.0736594
7	0xc11e2bb1	-9.885667
8	0xbf09aaea	-0.5377642
9	0xbfbccd4f	-1.4750155
10	0xbfe3840e	-1.7774675
11	0x3fd77a6f	1.6834239
12	0xc02af6fc	-2.6713247
13	0x4004a3c3	2.0724952
14	0x4005561a	2.0833802
15	0xbf929faa	-1.1454976
16	0x403be07c	2.9355764
17	0x3fc85d91	1.5653554
18	0xc0171b93	-2.361058
19	0x3f81324a	1.0093472
20	0x4094c1c8	4.648655
21	0xc032b40a	-2.7922387
22	0x40b563c7	5.66843
23	0x3f67348b	0.9031455
24	0xc002d183	-2.0440376
25	0xbedfccf2	-0.43711048
26	0x3f906498	1.1280699
27	0x408ee390	4.4652786
28	0xc0263a74	-2.5973177
29	0x3f99393b	1.197059
30	0xc04e5b31	-3.224316
31	0x4016f6a2	2.3588033
32	0xc04a8f36	-3.164991
33	0x40dadea4	6.839678
34	0x3f2718b7	0.65272087
35	0xbfcb45b7	-1.588065
36	0xbedbb852	-0.42914063
37	0xc03d17de	-2.9545817
38	0xc05eddc1	-3.4822848
39	0x4014932d	2.321483
40	0x3f12d57c	0.57357
41	0xbf8bb6e0	-1.0915184
42	0x40d217fa	6.565427
43	0xc08280d0	-4.078224
44	0x4047675e	3.115684
45	0xbe8f7f3e	-0.28026766
46	0x3e7b2ac0	0.24528027
47	0x3fb616eb	1.4225744
48	0x3fdd4a6d	1.7288338
49	0x405c8749	3.4457572
50	0x403d3b23	2.9567344
51	0xc0ea439e	-7.320754
52	0x40485a8c	3.1305265
53	0xbfec3284	-1.8452916
54	0x3f725621	0.9466267
55	0xbf5b375e	-0.8563136
56	0x3f984bc5	1.1898123
57	0xc0300d97	-2.7508295
58	0xbf449235	-0.76785594
59	0x40a6a434	5.2075443
60	0x40855966	4.167163
61	0xc03ad3c3	-2.919175
62	0x3e00fd3e	0.12596604
63	0x3ebe835e	0.372096
64	0x40427785	3.038545
65	0xbfb905e5	-1.4454924
66	0xc04cef83	-3.2021186
67	0x3f75cda9	0.9601694
68	0x3ede37fa	0.43402082
69	0x3f7d882d	0.9903591
70	0x400b428e	2.1759372
71	0xc01a3091	-2.4092143
72	0x3fa3df8f	1.28026
73	0x40345225	2.8175137
74	0xc04768ad	-3.115764
75	0x3d9aaf17	0.07552927
76	0xbfaa5b8f	-1.3309191
77	0x3ec9e040	0.39428902
78	0xbee31b44	-0.4435674
79	0xc015b5dc	-2.3392248
80	0x3f2ffd9a	0.6874634
81	0x40419337	3.0246103
82	0x3f2e1792	0.68004715
83	0xbfee0f97	-1.8598508
84	0x3f2761a1	0.65383345
85	0xc02af52f	-2.6712148
86	0x40b1654d	5.543616
87	0xc06e1525	-3.7200406
88	0x3f14c071	0.5810614
89	0x3fcf825f	1.6211661
90	0x4033e777	2.8110025
91	0xbfcbc97f	-1.5920867
92	0xc167607f	-14.461059
93	0xbdf77f9e	-0.12084888
94	0xbfb5bea2	-1.4198802
95	0xc081c646	-4.0554533
96	0x402ceb07	2.701845
97	0xc0907208	-4.51392
98	0xc03bc0a2	-2.9336324
99	0xbfb80a44	-1.4378133
100	0x3f7918fd	0.97303754
101	0xbe3005c2	-0.17189696
102	0x40ab8012	5.3593836
103	0xc07186a2	-3.7738423
104	0xbfe78bca	-1.8089535
105	0xbf79cc75	-0.975776
106	0x3fbd848f	1.4806079
107	0x400c9b0e	2.1969638
108	0xbfe28592	-1.7697012
109	0xbeec7ca9	-0.46188858
110	0x3f09b34a	0.537892
111	0xc073fba3	-3.8122337
112	0xbfd612c2	-1.6724474
113	0x3fd1c67f	1.6388701
114	0xc0a16869	-5.0439954
115	0xbf892aa2	-1.0716136
116	0x3ff85075	1.9399554
117	0x3f9e9d13	1.2391685
118	0x3fe0dd13	1.7567466
119	0x40464048	3.0976734
120	0xbf94642f	-1.1593074
121	0xc0f2564b	-7.573034
122	0x409c843d	4.8911424
123	0xc095b6b1	-4.678551
124	0xbf4880c9	-0.7832151
125	0xc08cc4b6	-4.3990126
126	0xbf135318	-0.57548666
127	0xbf8b3bd1	-1.087763
128	0x404025f4	3.0023165
129	0x40920ddc	4.564192
130	0x3f93d594	1.1549554
131	0xc0b2b1e9	-5.5842175
132	0x3fab4c61	1.3382684
133	0x425adbd0	54.71466
134	0x3f22ace0	0.63545036
135	0x3e80f096	0.25183553
136	0xbfd0080c	-1.6252456
137	0xc06e9552	-3.7278638
138	0x4072d216	3.7940726
139	0xbfcc21a1	-1.5947763
140	0x3fadab64	1.3567929
141	0x40c32661	6.098435
142	0xbf10da55	-0.5658315
143	0x4027df30	2.6229973
144	0xbf8d44f2	-1.1036665
145	0x3eeac709	0.45854977
146	0x3ff6ad7b	1.9271692
147	0xc021f54f	-2.5305974
148	0x3feb4334	1.8379884
149	0xbf881414	-1.0631127
150	0x3f82e1ac	1.022512
151	0x3f8f2481	1.1183015
152	0x4002409f	2.0351942
153	0xbff633ab	-1.9234518
154	0xbf2f7c74	-0.68549275
155	0xbd9ce4be	-0.076608166
156	0x3f021d7f	0.5082626
157	0xbfd531ba	-1.66558
158	0x3fe07bb2	1.7537749
159	0xbf74b158	-0.95583105
160	0xbfcb3843	-1.5876545
161	0x3e82260b	0.2541965
162	0x3ea990d3	0.33118305
163	0x40a78814	5.235361
164	0xc0be9e7a	-5.9568453
165	0xbfd2d4dc	-1.647121
166	0x3eb89b45	0.3605596
167	0xbf979375	-1.1841875
168	0x403d18c3	2.9546363
169	0x3e208835	0.15676959
170	0xc06a6538	-3.662428
171	0xbf3eabff	-0.74481195
172	0x3e71f05a	0.23626843
173	0x3d95b430	0.07309759
174	0xbfc6cf94	-1.5532098
175	0x406c1e58	3.689352
176	0xbfec6d6f	-1.8470896
177	0x3d1e3734	0.038626865
178	0x40122cca	2.2839837
179	0xbf0b8ce8	-0.5451188
180	0xc073116d	-3.7979386
181	0xbe62f876	-0.22165093
182	0xbd4f4a8f	-0.050608214
183	0x3e18ed0f	0.1493418
184	0xbea35c89	-0.31906536
185	0x3ea5b472	0.3236423
186	0xc02537d2	-2.581532
187	0x3ec3099e	0.38093275
188	0x3f824440	1.0177078
189	0x3fef8f84	1.8715672
190	0x40416a52	3.0221143
191	0x3f42f30f	0.7615213
192	0x401bce50	2.4344673
193	0xbf37f6d8	-0.7186103
194	0x40cb23eb	6.3481345
195	0x3f940ffb	1.1567377
196	0xc019a7a9	-2.4008582
197	0x3f714c06	0.9425663
198	0xbfebb404	-1.8414311
199	0x4042de42	3.0448155
200	0xc0906590	-4.512398
201	0xc08c3d56	-4.3824873
202	0x3dbfff59	0.093748756
203	0xbedc25db	-0.4299763
204	0x404be6bb	3.1859577
205	0x4017a28c	2.369296
206	0xc0011d4d	-2.0174134
207	0xc071adaa	-3.7762246
208	0xc0093aaf	-2.1442068
209	0xc01187ea	-2.2739205
210	0x400ec63e	2.2308497
211	0x4026d72e	2.6068835
212	0x3fe22973	1.7668899
213	0xbf993a9c	-1.1971011
214	0xbf9f9898	-1.2468443
215	0xbede1a5e	-0.43379492
216	0x3c3083b1	0.010773585
217	0xc0878e88	-4.236149
218	0xbd9fecd9	-0.07808847
219	0x3fda2010	1.7041035
220	0x408d711e	4.4200583
221	0xc0421d5a	-3.0330415
222	0x408937dd	4.2880692
223	0xbf726d19	-0.9469772
224	0x404ab4bb	3.167281
225	0xc024d6f2	-2.5756192
226	0xc01b5e71	-2.4276392
227	0xbeb40d5a	-0.35166436
228	0x40d5e197	6.683788
229	0x3fe101e0	1.7578697
230	0x3ef4518b	0.47718462
231	0xbe6c42f4	-0.23072416
232	0x3fbe1501	1.485016
233	0x3e80767d	0.250904
234	0x3f005f38	0.5014529
235	0x3f63acc6	0.88935506
236	0xc0783111	-3.8779948
237	0x3ffb68bc	1.9641337
238	0xbff32429	-1.899541
239	0xbffac8f5	-1.9592577
240	0x3f07b2e2	0.5300733
241	0x4103ff78	8.24987
242	0xbfdf5cc8	-1.745019
243	0x3f756c58	0.95868444
244	0xbfbccbf1	-1.4749738
245	0xbede57e3	-0.43426427
246	0xbe6ab48a	-0.22920433
247	0x400d35ff	2.2064207
248	0x3fea4905	1.8303534
249	0x3f97dca8	1.1864214
250	0xbfc1d2d4	-1.5142465
251	0x404bc12e	3.1836658
252	0x4086ed22	4.216447
253	0x40490bd1	3.1413462
254	0x3fffb185	1.997605
255	0x4076c061	3.8554919

bias f4 [100]
0	0x00000000	0.0
1	0x00000000	0.0
2	0x00000000	0.0
3	0x00000000	0.0
4	0x00000000	0.0
5	0x00000000	0.0
6	0x00000000	0.0
7	0x00000000	0.0
8	0x00000000	0.0
9	0x00000000	0.0
10	0x00000000	0.0
11	0x00000000	0.0
12	0x00000000	0.0
13	0x00000000	0.0
14	0x00000000	0.0
15	0x00000000	0.0
16	0x00000000	0.0
17	0x00000000	0.0
18	0x00000000	0.0
19	0x00000000	0.0
20	0x00000000	0.0
21	0x00000000	0.0
22	0x00000000	0.0
23	0x00000000	0.0
24	0x00000000	0.0
25	0x00000000	0.0
26	0x00000000	0.0
27	0x00000000	0.0
28	0x00000000	0.0
29	0x00000000	0.0
30	0x00000000	0.0
31	0x00000000	0.0
32	0x00000000	0.0
33	0x00000000	0.0
34	0x00000000	0.0
35	0x00000000	0.0
36	0x00000000	0.0
37	0x00000000	0.0
38	0x00000000	0.0
39	0x00000000	0.0
40	0x00000000	0.0
41	0x00000000	0.0
42	0x00000000	0.0
43	0x00000000	0.0
44	0x00000000	0.0
45	0x00000000	0.0
46	0x00000000	0.0
47	0x00000000	0.0
48	0x00000000	0.0
49	0x00000000	0.0
50	0x00000000	0.0
51	0x00000000	0.0
52	0x00000000	0.0
53	0x00000000	0.0
54	0x00000000	0.0
55	0x00000000	0.0
56	0x00000000	0.0
57	0x00000000	0.0
58	0x00000000	0.0
59	0x00000000	0.0
60	0x00000000	0.0
61	0x00000000	0.0
62	0x00000000	0.0
63	0x00000000	0.0
64	0x00000000	0.0
65	0x00000000	0.0
66	0x00000000	0.0
67	0x00000000	0.0
68	0x00000000	0.0
69	0x00000000	0.0
70	0x00000000	0.0
71	0x00000000	0.0
72	0x00000000	0.0
73	0x00000000	0.0
74	0x00000000	0.0
75	0x00000000	0.0
76	0x00000000	0.0
77	0x00000000	0.0
78	0x00000000	0.0
79	0x00000000	0.0
80	0x00000000	0.0
81	0x00000000	0.0
82	0x00000000	0.0
83	0x00000000	0.0
84	0x00000000	0.0
85	0x00000000	0.0
86	0x00000000	0.0
87	0x00000000	0.0
88	0x00000000	0.0
89	0x00000000	0.0
90	0x00000000	0.0
91	0x00000000	0.0
92	0x00000000	0.0
93	0x00000000	0.0
94	0x00000000	0.0
95	0x00000000	0.0
96	0x00000000	0.0
97	0x00000000	0.0
98	0x00000000	0.0
99	0x00000000	0.0
