head/head_Camelyon.pt (torch, 5695 bytes, 2 tensors)

weight f4 [2, 512]
1.5173146 0.7776107 -2.704337 4.6197844 -1.8916415 -0.54149485 -1.3826689 -11.169779
-0.76017797 1.6750308 -0.20515464 -0.49507773 -0.50917107 -2.0959587 -0.4855878 -0.64121115
1.2818551 -0.1767393 2.9626749 -0.39120516 2.739495 0.3650523 1.3921373 -1.0263934
0.06789263 2.5760493 -1.4652171 -0.39984566 -4.468036 -1.2346137 -0.083796956 -0.23267367
0.048631582 0.10970703 -0.5932658 -0.812156 1.344235 -2.0885992 2.0886102 2.1657834
-1.4304558 -0.12762329 2.745349 3.7469625 1.4787298 0.82880783 0.21120913 3.8111892
-0.31225464 0.2894038 -1.0265476 -0.6935451 -1.3876743 -0.20439617 -2.1957598 0.03026343
0.55762625 1.3400371 -1.6536266 2.4131963 2.4728007 0.47733808 -4.560235 -0.55745786
-0.9989659 -0.5422056 0.64696324 -0.37855196 -0.37205288 2.9500256 -2.4928865 -0.19524953
1.0880231 0.08695683 -4.400113 -0.87945294 3.4066632 4.253581 -0.49349913 -2.4174137
0.97024536 -0.10606576 0.7676017 0.63384867 -2.157894 -1.0196009 2.3509073 1.1781075
0.3329129 -2.9409142 -3.2117054 0.7453728 -17.879782 -1.1126877 0.5325584 1.982211
2.8322556 -4.02258 0.46342263 0.24400702 -1.9228997 3.8023584 1.038255 -2.9158673
-0.55508024 -0.70733523 -0.56592214 1.4579165 -0.06074676 0.3906534 3.2518716 -1.0557173
-1.580945 -0.88168967 -0.3762959 1.8013355 -1.7080399 -4.6085806 -1.2011564 -0.48403764
-0.15833344 -2.344834 -2.843751 -3.1899471 2.5817974 0.19510402 -0.20288639 3.0199327
-1.3135614 1.7850956 0.70941126 -0.39117947 -2.2900932 56.583904 3.3015482 1.936295
-0.8309119 -4.1960506 0.24957925 2.4766934 -0.79418683 2.0906656 1.1874195 3.8341534
-4.037756 4.6184893 -1.2305315 1.004198 -1.7089922 -4.228515 0.86577904 3.1231189
0.4262483 -0.54151124 -0.4199033 -3.6383781 4.3587236 0.6956034 0.25527096 0.22185016
-1.6260875 -1.8109087 -1.459784 -0.08485971 0.9700842 1.147941 4.1502824 -4.673921
-0.23058745 -0.23992756 1.2342173 3.9365065 -2.3043776 3.397952 -4.450821 2.7221985
-1.065959 1.2152817 3.4468849 0.034265123 -1.6600671 0.20144284 -1.3710791 -1.2874696
-5.168909 1.9905808 -2.9898229 0.756561 3.8115568 -3.4552495 1.3746412 -2.067935
3.029952 0.050357305 1.817643 1.1298254 1.1086878 0.21325943 0.23611717 0.9067317
3.1808748 -1.0451859 -0.08666938 2.943673 2.7314503 -3.3166628 0.46760076 -1.6437262
-2.4229333 1.2480571 0.7270704 2.5770822 -0.11051724 2.9419177 -1.2362103 0.07321912
-0.63637376 2.026498 -3.9364145 -0.8203008 1.0185575 -1.8767251 -0.70778304 0.61416745
-1.0184578 -1.1195884 -0.741786 1.7188305 1.3284948 -0.63726264 -0.89049673 -3.6288798
-0.5327552 -0.83763963 1.1500868 -3.3737946 0.41632554 3.474129 -2.0113804 -0.25715423
-0.21866374 1.1608113 -0.13134578 -0.6022322 -3.2274134 0.90086323 -2.1953552 -1.2745316
-3.715441 -0.8973168 1.0508194 -1.3778727 -2.277574 4.037939 0.90350163 -1.1750998
00000000: 5d37 c23f 7f11 473f db13 2dc0 46d5 9340
00000010: 4f21 f2bf 689f 0abf 4bfb b0bf 6ab7 32c1
00000020: 069b 42bf 6967 d63f 0f14 52be d47a fdbe
00000030: 0959 02bf 3024 06c0 f79e f8be 6a26 24bf
00000040: d413 a43f 26fb 34be 779c 3d40 0b4c c8be
00000050: e353 2f40 23e8 ba3e 8e31 b23f dc60 83bf
00000060: 4b0b 8b3d fedd 2440 3c8c bbbf 92b8 ccbe
00000070: 27fa 8ec0 d207 9ebf bd9d abbd 0242 6ebe
00000080: e931 473d 14ae e03d 44e0 17bf 75e9 4fbf
00000090: e40f ac3f 9cab 05c0 caab 0540 329c 0a40
000000a0: 2d19 b7bf aeaf 02be ccb3 2f40 3cce 6f40
000000b0: 0547 bd3f c02c 543f 3547 583e 86ea 7340
000000c0: d7df 9fbe bc2c 943e e965 83bf 2c8c 31bf
000000d0: 509f b1bf 3b4d 51be 5487 0cc0 03eb f73c
000000e0: 98c0 0e3f 5686 ab3f 09aa d3bf cf71 1a40
000000f0: 5e42 1e40 a865 f43e 72ed 91c0 8fb5 0ebf
00000100: 3bbc 7fbf fccd 0abf 629f 253f 90d1 c1be
00000110: b77d bebe 38cd 3c40 748b 1fc0 7eef 47be
00000120: 5744 8b3f 6c16 b23d bacd 8cc0 d423 61bf
00000130: c506 5a40 561d 8840 ebab fcbe e8b6 1ac0
00000140: 0062 783f 0139 d9bd 8c81 443f e843 223f
00000150: ef1a 0ac0 4882 82bf 4475 1640 3acc 963f
00000160: 8f73 aa3e f037 3cc0 958c 4dc0 c0d0 3e3f
00000170: cb09 8fc1 8d6c 8ebf bf55 083f 17b9 fd3f
00000180: ad43 3540 fab8 80c0 bb45 ed3e fadc 793e
00000190: 9421 f6bf d759 7340 8ae5 843f 929d 3ac0
000001a0: bd19 0ebf ec13 35bf 46e0 10bf 029d ba3f
000001b0: 98d1 78bd b903 c83e aa1e 5040 bf21 87bf
000001c0: 685c cabf 6ab6 61bf dba9 c0be 2992 e63f
000001d0: 0da1 dabf 7e79 93c0 7ebf 99bf c8d3 f7be
000001e0: 2922 22be c311 16c0 0400 36c0 1828 4cc0
000001f0: 2b3c 2540 59c9 473e 73c1 4fbe 9446 4140
00000200: c822 a8bf 037e e43f fa9b 353f ad48 c8be
00000210: e390 12c0 eb55 6242 914c 5340 84d8 f73f
00000220: a4b6 54bf 0c46 86c0 b491 7f3e 2582 1e40
00000230: d44f 4bbf 77cd 0540 5dfd 973f c562 7540
00000240: 4c35 81c0 aaca 9340 0e82 9dbf 8f89 803f
00000250: 42c0 dabf ff4f 87c0 b2a3 5d3f 2ee1 4740
00000260: 383d da3e 7ba0 0abf 91fd d6be 30db 68c0
00000270: aa7a 8b40 1013 323f e0b2 823e b02c 633e
00000280: a323 d0bf dbcb e7bf 34da babf edca adbd
00000290: 7057 783f bbef 923f 1dcf 8440 c390 95c0
000002a0: 1e1f 6cbe 92af 75be d5fa 9d3f b9ef 7b40
000002b0: ec7a 13c0 0c78 5940 206d 8ec0 8038 2e40
000002c0: 5871 88bf 5a8e 9b3f c399 5c40 9659 0c3d
000002d0: 147d d4bf 0847 4e3e 857f afbf cecb a4bf
000002e0: b467 a5c0 5acb fe3f 4259 3fc0 fbad 413f
000002f0: 8cf0 7340 cf22 5dc0 3ef4 af3f 0c59 04c0
00000300: bcea 4140 7643 4e3d 87a8 e83f 1e9e 903f
00000310: 7be9 8d3f ae60 5a3e b3c8 713e 921f 683f
00000320: 7493 4b40 a7c8 85bf b77f b1bd 2365 3c40
00000330: 15d0 2e40 3444 54c0 5e69 ef3e 9f65 d2bf
00000340: 5711 1bc0 56c0 9f3f 4921 3a3f eaee 2440
00000350: dd56 e2bd 6148 3c40 243c 9ebf e8f3 953d
00000360: 64e9 22bf 25b2 0140 37ee 7bc0 3cff 51bf
00000370: 1860 823f 8738 f0bf 4531 35bf 143a 1d3f
00000380: d35c 82bf ac4e 8fbf b0e5 3dbf a302 dc3f
00000390: 1e0c aa3f a523 23bf 98f7 63bf 913f 68c0
000003a0: a562 08bf 8d6f 56bf 0b36 933f 40ec 57c0
000003b0: 9f28 d53e 2158 5e40 75ba 00c0 b8a9 83be
000003c0: 63e9 5fbe 7795 943f 827f 06be e42b 1abf
000003d0: f18d 4ec0 f99e 663f b380 0cc0 da23 a3bf
000003e0: c9c9 6dc0 8eb6 65bf 4081 863f 225e b0bf
000003f0: c6c3 11c0 cc36 8140 e24b 673f ac69 96bf

bias f4 [2]
0.0 0.0
00000000: 0000 0000 0000 0000
